data.pth (torch, 11607 bytes, 6 tensors)

l1.weight f4 [8, 165]
000000 c8 e7 fa be 04 6a 7f be 8c dc fd 3e 32 9c 77 bd
       -0.4900496 -0.24942786 0.49582326 -0.060451694
000010 2b c9 a9 be c4 11 aa be 01 37 b6 3e b8 66 f0 bd
       -0.3316129 -0.3321668 0.3558884 -0.11738342
000020 cc 5b 8f 3d 4c 61 16 3f db 80 6a 3f e6 c7 61 be
       0.06999931 0.58742213 0.9160287 -0.22048911
000030 32 dc 4b bf 8d 62 ee be 05 db 0e bf 4a d2 80 3f
       -0.79632866 -0.46559563 -0.5580295 1.0064175
000040 e6 a9 25 3f 6d 6d 47 3f 61 1e c1 be 06 f9 5c 3f
       0.6471237 0.77901345 -0.3771849 0.8631748
000050 19 4e 93 3f e8 34 50 3f ee 4c 43 3f 88 1b 02 bf
       1.1508209 0.8133073 0.7628926 -0.5082326
000060 aa be 37 3e 09 a0 66 3f e0 45 2c 3f 79 27 e6 3e
       0.17943826 0.90087944 0.6729412 0.4495199
000070 92 7f a0 3f b9 5e 1b bf 96 5e 56 3f 61 37 f9 be
       1.2538931 -0.6069141 0.83738077 -0.48675063
000080 92 ba 71 3d 06 54 fb be f1 a1 af bc f6 95 d8 3e
       0.059015818 -0.49087542 -0.021439524 0.4230191
000090 ee 0b 7d 3f 10 56 55 3f 40 22 38 3f 13 ee f8 be
       0.9884633 0.83334446 0.7192726 -0.48619136
0000a0 22 e6 10 3f b6 5e 44 3f a7 84 7a be 93 7c 70 be
       0.56601155 0.7670702 -0.24464665 -0.23485021
0000b0 2f 2b f9 be 6a 40 2e 3d 49 03 cc 3e a1 69 8f bf
       -0.4866576 0.0425419 0.39846256 -1.120411
0000c0 ad 93 00 3f a6 92 0d be a6 ce f0 3e fc e8 0e be
       0.50225335 -0.13825473 0.4703266 -0.13956064
0000d0 31 16 6d 3f 3c 5b 60 be 0a d1 e9 be 1a d1 86 bf
       0.92611986 -0.21909803 -0.45667297 -1.0532563
0000e0 71 c7 a1 3e 15 43 3a be ae b9 94 3e fc 0c 91 3d
       0.31597474 -0.18189652 0.29047912 0.07082555
0000f0 b0 16 31 3f 4a de ba be ef f8 e1 be a2 15 66 bb
       0.69175243 -0.36497718 -0.44135234 -0.003510811
000100 87 b6 5d be 2d 04 e2 3e 82 9a f2 3d de c3 01 3f
       -0.2165166 0.4414381 0.11845876 0.50689495
000110 ce 38 1b bf d8 ad 3e 3f eb 30 89 bd a0 02 47 3f
       -0.6063355 0.74484015 -0.066987835 0.7773838
000120 af 06 0f be 09 08 3e 3f df 94 3c 3f f1 69 fc 3e
       -0.13967393 0.7423101 0.7366466 0.49299577
000130 70 c6 b8 3e 34 69 7e be 2d f7 dc 3e 70 0e 07 be
       0.36088896 -0.2484482 0.4315733 -0.13189101
000140 d7 73 2f bd d0 b5 63 3f 36 45 ed 3d 6a 51 f0 3e
       -0.042835083 0.889493 0.115854666 0.46937114
000150 26 82 da be b2 d9 85 bf 4c 30 97 3e 30 42 fc be
       -0.4267742 -1.045706 0.29529035 -0.49269247
000160 18 31 3c 3e 8e 5e 94 be 88 63 16 3f 52 c2 40 3d
       0.18378103 -0.2897839 0.5874562 0.04706032
000170 54 4e bf 3d b7 64 5d bf 47 4a 03 be 42 79 03 bf
       0.09341112 -0.86481804 -0.12821303 -0.513569
000180 e0 7c 3d 3f ac e7 f7 3e fb e9 49 3e 8e 0c 71 be
       0.7401867 0.4841894 0.19718163 -0.23539945
000190 19 c5 1c 3e 7c 02 81 3e f6 00 14 3d 78 1c 1f be
       0.15309562 0.25197208 0.03613373 -0.15538204
0001a0 26 a9 2d bd ec e9 e3 be 6b b4 8a 3e 46 b1 86 3f
       -0.04239764 -0.44514406 0.27090773 1.052285
0001b0 5e 6e d3 3e fc 1d 0c be 88 6b 1d bf 3a 5a 11 3e
       0.4129514 -0.13683313 -0.61492205 0.14194575
0001c0 b0 eb 58 be b0 cf 82 3a 19 9a e9 3e ab 71 e9 bc
       -0.21183658 0.0009980109 0.4562538 -0.028496584
0001d0 92 f5 5e 3f bc 38 8c be 01 1f 88 3f 8c c7 ce 3e
       0.8709346 -0.27387035 1.0634462 0.40386617
0001e0 76 54 cd 3e 9f e5 e0 3e f5 be b4 bd 68 53 64 bf
       0.401035 0.43925187 -0.08825485 -0.8918977
0001f0 c8 60 0b 3f 33 29 2d bf 3e 14 7c 3f fe 3b da be
       0.5444455 -0.6764099 0.9846839 -0.42623895
000200 d7 78 df bd 78 56 10 be 7a db 73 be 23 7a 55 bd
       -0.1091172 -0.14095485 -0.23814192 -0.05211843
000210 1c 92 e5 be 00 3d 86 3f d9 25 fc bd 20 19 d0 be
       -0.44838035 1.0487366 -0.12311906 -0.4064417
000220 3a 1d 89 3e 88 6e 19 be 89 4b 3e 3f 8a 3a 3d 3e
       0.2678011 -0.1498357 0.7433401 0.18479362
000230 13 dd 87 3f 14 8d 64 bf 42 15 80 be f3 bc 13 3e
       1.0614341 -0.8927777 -0.25016218 0.14427547
000240 a6 e0 80 be ca 2c 93 be b1 08 0c 3f c0 02 9e bc
       -0.25171393 -0.2874511 0.5470076 -0.01928842
000250 2b ae 55 be 18 5e b7 3e 4f 62 04 3f 90 7b dd be
       -0.20867221 0.35813975 0.51712507 -0.43258333
000260 6c d2 fe be 28 0b e5 be 94 ae b6 be 28 6c ec 3e
       -0.49769914 -0.44735074 -0.35680068 0.46176267
000270 25 48 e4 be f6 ec 63 be 98 c5 c9 be 32 83 f8 be
       -0.44586292 -0.22258362 -0.39408565 -0.48537594
000280 4d 03 86 be c6 6d 33 3f 8b 79 c4 be 86 cb 9b 3e
       -0.26174393 0.70089376 -0.3837398 0.30428714
000290 40 ac 0d 3e 5a a7 c0 be 38 09 30 3f 36 1f e0 3e
       0.1383524 -0.3762768 0.68764067 0.43773812
0002a0 47 f5 89 3d df 0e 6b be 4a e6 66 be b6 1b ce 3e
       0.06736236 -0.22954892 -0.22548786 0.40255517
0002b0 e0 e5 37 bf c3 8b 59 bf 25 e8 5a 3e 90 64 fa 3e
       -0.71835136 -0.84978884 0.21377619 0.48904848
0002c0 36 84 85 bd f4 ac 27 be 53 08 ed bd aa 16 12 bf
       -0.06519358 -0.1637457 -0.11573853 -0.5706583
0002d0 df 7f c8 bb ea 11 e9 be ff a6 ff 3f ed d1 b9 3e
       -0.006118759 -0.4552148 1.9972838 0.36292973
0002e0 70 d8 81 3e 2e b1 40 bf a6 98 a4 3e da 5e 86 bc
       0.2536044 -0.75270355 0.32147712 -0.01640265
0002f0 d7 d3 13 3f 14 0f 8e be 30 36 0a bf ff 39 4f bf
       0.57745117 -0.2774588 -0.53988934 -0.8094787
000300 98 56 09 3c 17 5b f3 be 23 f4 dc 3d 35 e9 13 3e
       0.008382462 -0.47530434 0.10788753 0.1444443
000310 75 e2 06 3f 7d ee 0f bf d3 2a 5c be 85 96 33 bf
       0.52689296 -0.5622328 -0.21500711 -0.7015155
000320 38 a6 d4 bd 12 89 1f bf f9 c4 3b 3f a8 8c 18 3f
       -0.10383266 -0.6231853 0.7334743 0.59589624
000330 0d aa 26 3f 80 4d 27 bf ec 99 49 bf 6c e8 31 3f
       0.65103227 -0.6535263 -0.7875049 0.6949527
000340 83 de 9d 3c 04 52 cb be 7e 2c 09 bf 84 2d 0f 3f
       0.01927114 -0.3971101 -0.53583515 0.55928826
000350 c2 d7 53 3f 9b ad 22 3f e3 37 3b bf fb 80 c9 3e
       0.82751095 0.6354615 -0.7313215 0.39356217
000360 68 2a e7 3e 6a 53 54 bf 15 b2 8c bf c9 50 31 3f
       0.4514954 -0.8293978 -1.0991846 0.69263893
000370 d3 f5 2a 3f 51 c4 19 3f 82 d9 96 3e 14 56 e3 3e
       0.6678135 0.6006518 0.2946282 0.4440161
000380 52 4a 0d bc 6e c8 a4 3e 0f 3f 2b bc 79 a0 f5 3e
       -0.008623676 0.32184166 -0.010452046 0.47973993
000390 d6 75 3c be 98 1d 9f bd 2f c6 1f 3f 63 79 d1 be
       -0.18404326 -0.077693164 0.6241178 -0.40912923
0003a0 62 27 24 3f 0e d0 e6 3d 9f ab 93 bf 26 6e 0a 3e
       0.64122593 0.11270152 -1.153675 0.13518581
0003b0 4f 2d 86 3f 34 55 02 3f 07 a8 7c 3f 4b d1 7e 3f
       1.0482577 0.5091126 0.9869389 0.99538106
0003c0 63 d2 15 3f 7e 77 81 be 26 0d 30 3f 98 b5 35 3e
       0.5852415 -0.25286478 0.6877006 0.17745054
0003d0 eb d8 e4 3d 0a 5a 86 3f 85 99 2b 3f 95 40 0a 3f
       0.11174186 1.0496228 0.6703113 0.54004794
0003e0 c2 9b 07 3f fc 4c 03 bd 35 f0 9d be c8 c6 e5 3e
       0.5297204 -0.03205584 -0.30847326 0.4487822
0003f0 96 34 cb bd e1 24 1e bf 95 64 07 3f 8f ce 0a bf
       -0.09922139 -0.6177502 0.5288785 -0.54221433

l1.bias f4 [8]
000000 73 fc 17 3f 16 5f 46 3f 5c c6 96 3f d2 76 0d 3f
       0.5936958 0.7748884 1.1779284 0.5525943
000010 89 3a 02 3f f3 03 51 3f fc 78 50 3f f1 ad 0c 3f
       0.5087057 0.8164665 0.8143461 0.54952914

l2.weight f4 [8, 8]
000000 70 85 bc 3f 3c 43 6c bf e3 5c fa 3e f9 f3 34 3e
       1.4728222 -0.9229009 0.48898992 0.17671193
000010 31 2b 2c 40 3c 1c 76 bf c1 11 12 40 a5 6e 85 3f
       2.6901362 -0.9613683 2.2823336 1.0424391
000020 6a 6a 29 3f 58 ee a7 bf 66 b2 a8 3d b9 95 3c 3f
       0.66178 -1.3119612 0.08237152 0.7366596
000030 87 ed ba bf 0c 84 19 40 e0 f0 74 3f 40 6c 1e bf
       -1.4603738 2.3986845 0.95680046 -0.61883926
000040 5b b3 97 bf fa 94 7e 3f 91 69 18 bf 91 f4 97 3f
       -1.185161 0.9944607 -0.5953608 1.1871511
000050 25 90 cb 3f 2a cb 0a 40 cc 49 6d 3e fa 53 49 bf
       1.5903364 2.1686502 0.23172683 -0.78643763
000060 26 67 ee bf d6 94 19 3d 65 09 f3 3f 9c b1 48 3f
       -1.8625228 0.037495457 1.8987242 0.7839601
000070 cf 3c 4c bf 26 9b 15 be cc e4 5e 3f a4 04 82 bf
       -0.79780287 -0.14609966 0.87067866 -1.0157666
000080 da ed f7 3e a5 94 65 bb f4 cc fd bd 47 9b cf 3f
       0.48423654 -0.0035031226 -0.12392607 1.6219262
000090 0b f0 45 3f 3f 06 2b bd b0 bd d4 3e 0b 91 6a be
       0.773194 -0.041754004 0.4155097 -0.22906892
0000a0 29 ad ba be 68 88 d9 3f 80 1a 5a 3f 24 8b e3 3f
       -0.36460236 1.6994753 0.85196686 1.7776837
0000b0 66 12 74 be f7 bb a3 3e a2 58 81 bf 5d d0 c9 3f
       -0.23835143 0.31979343 -1.0105174 1.5766712
0000c0 d3 5a ea 3d 99 b6 16 40 db 45 de 3f cc 43 ae bf
       0.114431046 2.3548949 1.7365068 -1.361444
0000d0 f4 86 06 bf 56 b3 7b 3f 3c b7 2d 3e 83 74 31 bf
       -0.5254967 0.9832052 0.1696443 -0.6931841
0000e0 d4 88 00 40 aa 00 07 bf a3 45 83 3f 97 3f c7 3f
       2.0083513 -0.5273539 1.0255626 1.5566281
0000f0 84 2f 6d 3f e4 bd 83 be cd 28 bf be 06 2d 0a c0
       0.9265063 -0.25730813 -0.37335816 -2.158998

l2.bias f4 [8]
000000 78 e2 97 3e 46 2a 41 3f 45 8a 8b be b4 01 05 3f
       0.2966497 0.7545513 -0.2725393 0.51955724
000010 b0 da 5c bf 0f 34 85 be 35 17 5b 3f f0 a3 16 3e
       -0.8627119 -0.2601628 0.85582286 0.14710975

l3.weight f4 [39, 8]
000000 6a 05 22 3d 95 55 cd bf ca fa f4 bf f1 94 01 3f
       0.039555945 -1.6041743 -1.9139035 0.5061789
000010 5a 65 98 bd 4b 12 37 3f b6 ae 71 bf 34 83 6c bf
       -0.07441206 0.7151229 -0.9440721 -0.923877
000020 0d f4 a5 bd c4 8f 53 bf 84 d8 30 c0 d6 6b a4 bf
       -0.081031896 -0.82641244 -2.763215 -1.2845409
000030 9a 08 09 3e 53 4a 2d 3e 2f e9 a6 be 6e f3 db 3e
       0.13382187 0.16922884 -0.3259978 0.4295916
000040 f1 1c 70 3e 80 a8 72 3d 67 b3 07 c0 ee b9 0e 3f
       0.2344854 0.059242725 -2.1203249 0.55752456
000050 7b 0e 24 bf 02 32 94 bf f1 90 52 3e cc 1a b8 be
       -0.64084595 -1.1577761 0.20563103 -0.35957944
000060 e7 18 81 3d 76 a6 a1 3e 85 84 24 c0 16 d2 37 3f
       0.06303578 0.31572312 -2.5705884 0.7180494
000070 97 58 c3 be 3a 04 4c bf 4e 9d 6f be d2 38 b9 be
       -0.38153526 -0.7969395 -0.2339985 -0.36176163
000080 d6 c6 1e 3f e9 5b cd bf 3e 79 35 c0 d7 37 ed bf
       0.6202215 -1.6043674 -2.835525 -1.8532666
000090 10 c7 4a 3e ce 50 de bf fa 78 2f bc 96 46 1b 3e
       0.19802499 -1.736841 -0.010709995 0.15163645
0000a0 23 38 ce 3e e1 5e 02 bf 4e 85 fe be 9e 85 79 bf
       0.40277204 -0.50926024 -0.49711078 -0.9746951
0000b0 6b 4a 79 3d 78 fd 00 3d e7 d8 be bf fe a2 bf be
       0.060861986 0.031491727 -1.4909943 -0.3742904
0000c0 d9 63 36 bf ee a8 bb be 29 63 0a 3f 56 d1 b5 bf
       -0.71246105 -0.3665232 0.54057556 -1.4204509
0000d0 88 3b d5 3e 4d 0c 15 3d df de 06 bf 6a 22 fe bf
       0.4164698 0.036388684 -0.52683824 -1.9854252
0000e0 16 37 d1 bf 1c 9e a3 3e fb dd 06 be ee 87 4a 3f
       -1.6344936 0.31956565 -0.13170616 0.7911366
0000f0 fe 82 f3 bf db 45 1d bf 49 04 2c 3f 79 2b 6c c0
       -1.9024351 -0.61434716 0.6719404 -3.6901534
000100 8a 3a b4 be 1b b2 64 3f 07 8c 06 bf 04 34 ad 3e
       -0.35200912 0.8933427 -0.52557415 0.33828747
000110 3e 40 18 be e3 98 33 c0 15 77 28 be ca 23 8f bf
       -0.14868256 -2.8062065 -0.16451676 -1.1182797
000120 d2 b9 78 3e 42 e7 0b 3f 02 87 71 be e7 ae e6 bf
       0.24289635 0.54649746 -0.23586658 -1.8022126
000130 27 2f 38 bd a5 8f 05 c0 fb 4d 75 bf 1e bf 99 bc
       -0.044966843 -2.0868924 -0.95822114 -0.01876789
000140 b1 cc 33 c0 b5 cd 0a 3f ec c2 ad 3e f6 97 b0 bf
       -2.8093684 0.54220134 0.33937776 -1.3796375
000150 d7 51 83 3d 11 21 ff 3e 6b 1d 83 bf 4a 36 4a bf
       0.06412094 0.49829915 -1.0243353 -0.7898909
000160 5e 37 3c bf 68 67 cb be 49 d6 41 c0 af cb d5 bd
       -0.73521984 -0.3972733 -3.028704 -0.1043924
000170 19 03 dd bf 03 05 ae be 10 46 62 3f 26 f4 d6 3e
       -1.726657 -0.339882 0.88388157 0.41983145
000180 15 9f 4c c0 b9 ce c8 3d e5 6c 84 bf c3 09 8a 3f
       -3.1972096 0.09805054 -1.0345732 1.0784229
000190 f8 65 0c c0 cf 41 20 bf 6b 5d 35 3f 7b ac 38 3e
       -2.1937237 -0.62600416 0.7084567 0.18034546
0001a0 23 25 fd 3e ea 2d 7e bf b6 ba 2e bd bb 45 1b c0
       0.49442396 -0.9928881 -0.04265853 -2.426131
0001b0 fe 89 a6 bf d7 cb 6e bf 85 4b 47 3f 34 4c 67 bf
       -1.3010862 -0.93279785 0.7784961 -0.9035065
0001c0 ad 74 2c bf 3a f8 39 3f 00 53 36 bf 79 0f cd bf
       -0.67365533 0.7264439 -0.712204 -1.6020347
0001d0 09 fa d0 bf f2 c2 fe 3e 90 9c 75 3c 3a e7 21 c0
       -1.6326305 0.49758106 0.014990941 -2.529738
0001e0 47 a7 39 c0 b5 3f f2 3e 32 ae 8b 3e 7c 25 1c bf
       -2.9008348 0.4731423 0.27281338 -0.60994697
0001f0 a2 4c 80 3e 58 10 35 be 9c 2e cb 3e 4b f2 3b c0
       0.25058466 -0.17682016 0.39683998 -2.9366634
000200 71 f6 67 be 42 c6 4c be 4a 94 6e 3e 92 65 cb 3e
       -0.22652604 -0.19997504 0.23298755 0.3972593
000210 48 41 54 bf 66 d1 90 bf a2 17 29 3e 10 4b cd bf
       -0.8291211 -1.1313903 0.16512921 -1.6038532
000220 90 15 42 3d 28 3a 52 bf 84 0c 8f 3e 7f 04 1b bf
       0.047383845 -0.8211999 0.27939236 -0.60553735
000230 99 e6 f8 3e 41 45 19 3f b5 b9 46 c0 1d bc 13 c0
       0.48613432 0.598713 -3.1050847 -2.3083565
000240 07 29 b6 bf c1 dc fc 3e ab e0 9c be 79 f1 2a 3e
       -1.423127 0.49387172 -0.30640158 0.16693677
000250 5f f8 b1 be 7f d7 89 be b8 c8 13 bf ee fc 44 3e
       -0.34759805 -0.26922223 -0.5772815 0.1923711
000260 5d a2 1d c0 eb 9c 09 c0 1c 59 1f 3f 8f ad dc bf
       -2.4630349 -2.1502025 0.62245345 -1.7240466
000270 32 61 91 be 01 0f 99 3e 7b 3e 5a 3e d2 9b 7b bf
       -0.28394467 0.2989426 0.21312897 -0.9828464
000280 fb 03 3b bd 55 fa d5 bf 0c 56 2d c0 2c 53 f9 bf
       -0.045658093 -1.671702 -2.708377 -1.9478507
000290 5a 3d e7 bf 1f 24 32 3f b4 63 3e 3f 7c 9c 1b c0
       -1.8065598 0.69586366 0.74370885 -2.431426
0002a0 1d 8d 99 3e 95 04 a8 3e f2 e6 20 c0 de 7a ad be
       0.29990473 0.32815996 -2.5140958 -0.33882803
0002b0 ec c2 2f be 47 2c 67 c0 e1 23 b2 be 1b 0d 09 3f
       -0.171642 -3.6120775 -0.34792998 0.5353562
0002c0 16 83 1b be 02 6e d6 bf 1b 35 f8 be c4 2e e0 3e
       -0.15186724 -1.6752322 -0.48478016 0.4378568
0002d0 21 d8 15 bf 1a 90 33 be f0 65 03 3f c8 a8 51 c0
       -0.5853291 -0.17535439 0.5132742 -3.2759266
0002e0 c1 d2 52 3f 8d 82 43 3f e2 53 17 be 87 cd 66 bf
       0.82352835 0.7637108 -0.14778093 -0.9015736
0002f0 2f 7f 4f bd 40 b9 a6 bf 84 03 25 c0 a7 72 04 c0
       -0.0506584 -1.3025284 -2.5783396 -2.0694978
000300 d7 10 78 be 7a 67 db 3c f2 bc f8 3e ef ff 6e 3e
       -0.24225174 0.02678274 0.48581654 0.23339818
000310 9c 87 23 3e e3 b0 5c bf 86 f0 d2 bf ab 55 1c bf
       0.159697 -0.8620741 -1.6479652 -0.6106822
000320 c6 d2 e6 be 0c 11 3e 3f 27 27 f8 bf 74 77 0d be
       -0.45082682 0.7424476 -1.9386948 -0.13815099
000330 51 5c d6 bd 4f e0 51 bf 75 6e 32 bf 7a 0f 28 3f
       -0.10466827 -0.8198289 -0.69699794 0.65648615
000340 ca b4 9f bf e9 2e ce bf cb 07 07 3e 44 26 b3 bd
       -1.2477047 -1.6108066 0.13186567 -0.08747533
000350 ba 49 62 3e af cf 4c 3e fd 9c 0d bf a1 96 a5 be
       0.22098437 0.200011 -0.5531767 -0.32341483
000360 3c 86 25 3e 66 ba 06 bf 06 64 4b bf 82 b0 ab be
       0.16164488 -0.5262817 -0.794495 -0.33533102
000370 51 47 05 3f d0 e2 b9 bf 55 63 11 c0 44 cb 5d 3f
       0.52061945 -1.4522343 -2.2716877 0.86638284
000380 04 2c cd be 2f e0 a5 3e 78 d1 fc bb 39 86 b6 bf
       -0.40072644 0.323976 -0.0077154003 -1.4259712
000390 ac 38 9c 3e 86 35 ef be bd 23 39 c0 42 49 96 3e
       0.30511987 -0.46720523 -2.8928063 0.29352766
0003a0 55 16 64 3f 9b 5b e3 bd cc ac 22 c0 12 4e 22 bf
       0.89096576 -0.11101457 -2.5417967 -0.63400376
0003b0 ad 5c 21 3f e0 48 56 c0 9c 73 33 c0 1d bf af 3d
       0.63032037 -3.348198 -2.8039312 0.08581374
0003c0 03 7f fd bf b0 5f 4b bf c8 0b f1 bc b1 07 31 3f
       -1.9804386 -0.7944288 -0.029424563 0.6915236
0003d0 04 79 54 3e b6 ba e7 3e d2 d4 23 be 28 54 2a c0
       0.20749289 0.45259637 -0.15999153 -2.6613865
0003e0 63 fa 57 bf 6f 9f 36 3f d1 81 dd be 49 7f 05 c0
       -0.84366435 0.71337026 -0.43263105 -2.0858939
0003f0 5c f2 fd be a3 23 a5 bf 46 db 0f 3f 7e a5 b3 bd
       -0.49598968 -1.29015 0.5619396 -0.087717995

l3.bias f4 [39]
000000 e8 90 92 bd ba bb b6 3e 20 91 c7 be 25 b1 ab bd
       -0.07156545 0.356901 -0.3897791 -0.08383397
000010 80 fb 61 3d f2 d1 a6 be c8 b9 02 bf 5d 1a 21 be
       0.05517149 -0.3258205 -0.5106473 -0.15732713
000020 49 14 d3 be f8 c2 cb be 7f bc 9b 3e 0a a5 89 bd
       -0.41226414 -0.39797187 0.3041725 -0.06720932
000030 61 b9 43 3f 7f ea a6 3e 13 69 5a 3e 2f 37 4e bc
       0.7645474 0.3260078 0.21329145 -0.012586399
000040 9d b1 a7 be 6b 61 63 3e b0 cb 44 be 98 22 6f 3e
       -0.32752696 0.22205131 -0.19218326 0.2335304
000050 fb cb fb 3e 37 34 df be d4 13 0a be ca 94 0a 3f
       0.49179062 -0.43594524 -0.13484126 0.54133284
000060 9c ef 18 bf 64 71 f8 be f5 45 22 bf fd cc e0 3c
       -0.59740615 -0.4852401 -0.63387996 0.027441496
000070 59 14 99 be 00 db 58 3e 71 e3 8b bd 8b 9f 5f 3e
       -0.29898337 0.21177292 -0.068304904 0.21838205
000080 fe 82 ee 3e c9 55 07 3f 9b 9c a9 3e 6d 78 08 3f
       0.46584314 0.5286527 0.33127293 0.53308755
000090 1d 3d a3 3e e5 76 f5 be c3 cb 14 3f
       0.31882563 -0.47942272 0.58123416
