chatbot/data.pth (torch, 6231 bytes, 6 tensors)

l1.weight f4 [8, 76]
0.23496716 -0.16963436 -0.6287753 -0.2703916 0.064716935 -0.31809297 0.6112095 0.0073505873
-0.11084594 -0.50448376 0.90104 -0.37598103 -0.37394926 -0.30709547 -0.4021917 -0.23282325
-0.23631825 -0.2006597 -0.35402548 0.25439414 0.60458815 -0.023423593 0.38921258 -0.69219875
-0.11099316 0.35882744 0.57955676 0.33819196 0.791696 -0.48192245 0.39171818 0.46525657
0.40482482 0.44955826 0.61989814 0.12161483 -0.18681681 0.13248634 0.70991105 0.15900666
0.53562987 -0.8066553 -0.38051757 0.47469595 0.40829226 -0.32347953 0.20918003 -0.118664004
0.084897436 -0.36878377 -0.8307411 -0.41911227 -0.030352244 -0.041253615 -0.24597727 0.66225
0.84634596 -0.14933218 0.34401348 0.17510499 0.7864627 0.50125486 0.049662128 -0.4297398
-0.30725184 -0.23215173 -0.08322128 0.32990623 -0.24975932 0.14294264 -0.4160991 0.8147037
0.84498763 -0.037182134 0.00095128594 -0.25612798 0.2679696 0.7765077 -0.56080544 0.33270708
0.49731693 -0.08079504 0.7978697 -0.06744347 0.30233815 0.0021156282 -0.37288317 0.40327373
-0.07359859 0.3882983 0.5260478 0.2892718 0.11076878 0.31059515 1.0433348 0.45420158
0.09909065 0.35656488 0.17166322 -0.44783932 0.5830355 0.50543505 -0.2355529 0.36917174
-0.40312216 -0.2377995 0.511348 0.7009695 0.39866662 0.47427672 0.53688896 0.4203846
0.31604454 -0.096131295 -0.25570896 -0.21295607 -0.43802187 -0.97286904 -0.47751275 0.17146732
0.41231602 0.4239168 -0.26691726 0.40643904 0.3080927 0.41064033 0.3554112 -0.18794544
0.40295818 0.26996088 -0.10978769 -0.42148027 -0.8442833 0.7553982 -0.0140575785 0.3115067
0.9615153 0.8323652 -0.35643274 0.110904634 0.3141326 0.6441106 0.18600132 0.6139715
0.95153695 0.34618872 -0.70675707 -0.18264052 -0.32166544 0.36604413 0.44624785 0.09749821
-0.55015796 0.53226256 -0.7049596 0.5799778 0.68958867 -0.5422544 0.8706109 0.22380395
0.39760962 0.19941963 -0.6659617 0.42832118 -0.06742266 0.35428232 0.6169827 -0.24226354
-0.60279053 0.476275 -0.12480799 0.6110853 0.4465357 0.27882114 0.35709235 0.042017266
0.078890614 0.6545137 0.30594674 0.59408915 -0.66638273 0.06291829 0.9419457 -0.113995396
0.863795 0.8728882 0.78933644 0.38831863 -0.28521416 0.06197529 -0.5590153 -0.0123790605
-0.4885415 -0.6358716 -0.60137576 0.35944787 0.07837469 0.4885144 0.08058678 0.04679227
0.44636098 0.63411164 -0.6691785 0.3568981 0.40487844 0.4624409 -0.10765703 -0.45159295
-0.6241907 -0.007971691 0.42096204 0.49967265 0.4869306 -0.11409813 0.2292419 -0.0069993096
-0.41782486 -0.027569152 0.20652731 -0.594763 1.0340673 -0.5373214 -0.5536798 -0.6579075
0.89840716 0.27043825 0.2741457 -0.066768035 0.3646234 0.11092263 0.15352802 -0.48654777
-0.4708584 0.4825082 0.31842 0.43171486 0.02852631 -0.17913212 1.0416316 -0.14962766
-0.43988988 -0.29619175 -0.62656397 0.27683198 0.43767205 -0.3202728 -0.8130398 0.4132436
0.15107656 0.027796594 -0.10578094 0.3578638 -0.27208522 0.12928446 0.31479594 0.59261864
00000000: 3b9b 703e a1b4 2dbe 6bf7 20bf c570 8abe
00000010: 508a 843d 15dd a2be 3a78 1c3f 32dd f03b
00000020: 3203 e3bd d925 01bf 8faa 663f 9680 c0be
00000030: 4776 bfbe 9e3b 9dbe 12ec cdbe 3869 6ebe
00000040: 69fd 71be bd79 4dbe d442 b5be f33f 823e
00000050: 4ac6 1a3f d6e2 bfbc df46 c73e f033 31bf
00000060: 6250 e3bd 3bb8 b73e d55d 143f 7f27 ad3e
00000070: 97ac 4a3f 8abe f6be 498f c83e 1c36 ee3e
00000080: 3345 cf3e 802c e63e a5b1 1e3f 3211 f93d
00000090: e84c 3fbe 80aa 073e bbbc 353f a4d2 223e
000000a0: 0a1f 093f f680 4ebf 33d3 c2be 590b f33e
000000b0: af0b d13e 1c9f a5be 4a33 563e 1d06 f3bd
000000c0: b5de ad3d 3ad1 bcbe 73ab 54bf e295 d6be
000000d0: 45a5 f8bc 8df9 28bd 77e1 7bbe 3789 293f
000000e0: 21aa 583f 89ea 18be 8922 b03e b94e 333e
000000f0: 9f55 493f 3d52 003f 846a 4b3d db06 dcbe
00000100: 1d50 9dbe 2fb9 6dbe eb6f aabd 78e9 a83e
00000110: e8c0 7fbe 8e5f 123e f10a d5be 6c90 503f
00000120: 1c51 583f 4b4c 18bd b85f 793a 3523 83be
00000130: 5033 893e 35c9 463f f290 0fbf 9558 aa3e
00000140: 53a0 fe3e df77 a5bd 3041 4c3f cd1f 8abd
00000150: 11cc 9a3e 5aa6 0a3b 8bea bebe e579 ce3e
00000160: dcba 96bd 09cf c63e 12ab 063f 6f1b 943e
00000170: beda e23d 5406 9f3e ff8b 853f 1c8d e83e
00000180: 0af0 ca3d ac8f b63e 7cc8 2f3e 324b e5be
00000190: d141 153f 3164 013f c834 71be 1404 bd3e
000001a0: 0766 cebe b681 73be b4e7 023f bd72 333f
000001b0: 081e cc3e 66d4 f23e 8e71 093f a63c d73e
000001c0: 97d0 a13e 7ce0 c4bd 49ec 82be 2811 5abe
000001d0: 6744 e0be f20d 79bf 8d7c f4be 2195 2f3e
000001e0: 161b d33e 9f0b d93e 61a9 88be c718 d03e
000001f0: 54be 9d3e 733f d23e 75f8 b53e c574 40be
00000200: 8950 ce3e 5038 8a3e 5ed8 e0bd 43cc d7be
00000210: f322 58bf c761 413f c251 66bc ce7d 9f3e
00000220: de25 763f e315 553f 5a7e b6be f821 e33d
00000230: fdd5 a03e 6fe4 243f 2177 3e3e 3c2d 1d3f
00000240: ed97 733f a63f b13e 08ee 34bf 1e06 3bbe
00000250: 55b1 a4be 236a bb3e 997a e43e 24ad c73d
00000260: 27d7 0cbf 5c42 083f 3b78 34bf 6d79 143f
00000270: e288 303f 2fd1 0abf 5be0 5e3f dd2c 653e
00000280: 7d93 cb3e a934 4c3e 777c 2abf ea4c db3e
00000290: e414 8abd 7e64 b53e 94f2 1d3f ef13 78be
000002a0: 7b50 1abf 51da f33e 559b ffbd 1670 1c3f
000002b0: 54a0 e43e a5c1 8e3e cfd4 b63e 4c1a 2c3d
000002c0: 6791 a13d 368e 273f 0da5 9c3e 3a16 183f
000002d0: 0f98 2abf 4edb 803d 5a23 713f 6b76 e9bd
000002e0: ab21 5d3f 9a75 5f3f f411 4a3f b3d1 c63e
000002f0: 9707 92be cdd9 7d3d a01b 0fbf 8bd1 4abc
00000300: 1d22 fabe 7bc8 22bf c3f3 19bf 8d09 b83e
00000310: e982 a03d 8f1e fa3e af0a a53d 40a9 3f3d
00000320: 6d89 e43e 2455 223f 484f 2bbf 59bb b63e
00000330: 3a4c cf3e 0ec5 ec3e 4a7b dcbd 3137 e7be
00000340: f6ca 1fbf b29b 02bc 5688 d73e 18d5 ff3e
00000350: f84e f93e 48ac e9bd 63be 6a3e 775a e5bb
00000360: 24ed d5be b4d8 e1bc e57b 533e 6342 18bf
00000370: 515c 843f e58d 09bf f6bd 0dbf a06c 28bf
00000380: 03fe 653f e276 8a3e d35c 8c3e aebd 88bd
00000390: ebaf ba3e 672b e33d 7336 1d3e ca1c f9be
000003a0: 5a14 f1be 510b f73e f207 a33e bb09 dd3e
000003b0: 02b0 e93c 696e 37be 2f54 853f fe37 19be
000003c0: 3f39 e1be 72a6 97be 7f66 20bf ecbc 8d3e
000003d0: 8d16 e03e ccfa a3be 6023 50bf aa94 d33e
000003e0: d0b3 1a3e afb5 e33c ada3 d8bd ed39 b73e
000003f0: c14e 8bbe 2563 043e ef2c a13e dbb5 173f

l1.bias f4 [8]
0.9237016 0.8718607 0.66594 1.1491851 0.8477517 0.62251496 0.5351648 0.5295317
00000000: b577 6c3f 4332 5f3f 0b7b 2a3f 7f18 933f
00000010: 4106 593f 245d 1f3f 8f00 093f 648f 073f

l2.weight f4 [8, 8]
-0.07203758 0.80227673 0.5906646 -0.41350508 -1.3214592 1.3710816 1.3165997 -0.4653374
1.4643761 0.3816982 1.1905942 1.1546295 0.5048461 -1.2548356 0.8913087 -0.3356111
0.19519873 0.9100731 0.017303484 0.1334205 -0.8748658 0.0871199 0.15481572 -1.0793785
-0.8771957 1.367837 1.3668852 -0.6010044 1.1627097 0.6094115 -0.3021776 -0.31822354
-0.16977163 -0.9701977 -1.1535699 1.1970198 0.9825412 1.358754 0.9148519 1.582245
-0.3466133 -0.22720362 -0.26217997 0.31724808 -0.10136941 -0.12545612 -0.10483472 -0.021325678
1.1765007 0.9799384 -0.8540298 1.1639823 -0.05136637 0.50215536 -1.6226531 -0.3341429
0.82689595 0.34165853 0.26506725 0.4488003 -1.2075206 0.66752857 0.67038906 -1.2465026
00000000: 7088 93bd 0262 4d3f cc35 173f f0b6 d3be
00000010: 9325 a9bf 9a7f af3f 5786 a83f b440 eebe
00000020: ad70 bb3f f26d c33e 6465 983f e6ca 933f
00000030: 983d 013f 749e a0bf cf2c 643f 38d5 abbe
00000040: 2de2 473e 8dfa 683f 09c0 8d3c 629f 083e
00000050: 34f7 5fbf eb6b b23d 0388 1e3e 1329 8abf
00000060: e68f 60bf 4815 af3f 18f6 ae3f 6ddb 19bf
00000070: acd3 943f 6402 1c3f 06b7 9abe 32ee a2be
00000080: 9dd8 2dbe e05e 78bf 2ea8 93bf f237 993f
00000090: d287 7b3f a7eb ad3f bc33 6a3f 0187 ca3f
000000a0: 4c77 b1be 11a8 68be 743c 86be 576e a23e
000000b0: c49a cfbd 9277 00be 96b3 d6bd 30b3 aebc
000000c0: 9397 963f 3edd 7a3f b2a1 5abf 5ffd 943f
000000d0: 8b65 52bd 418d 003f 19b3 cfbf c714 abbe
000000e0: 74af 533f deed ae3e e5b6 873e 27c9 e53e
000000f0: 0990 9abf 27e3 2a3f 9e9e 2b3f 668d 9fbf

l2.bias f4 [8]
0.44971934 0.5691043 0.449252 0.40252227 0.8046892 -0.29315332 0.9717385 -0.16896516
00000000: 9d41 e63e d2b0 113f 5c04 e63e 6617 ce3e
00000010: 1d00 4e3f 3118 96be dbc3 783f 3405 2dbe

l3.weight f4 [14, 8]
-1.4997965 -1.4972214 -0.19954796 -0.17312065 0.6169312 -0.21195519 0.15498622 -1.1194872
0.33246338 -1.1243205 0.5630387 0.42307356 -1.4017415 0.17336139 0.63743645 -0.7448045
0.34890473 0.58602506 0.44362822 -1.5713314 -0.99767166 -0.29406652 -1.1578468 0.5749396
-1.1800257 0.2271541 -0.51571506 -2.2148287 0.34794882 -0.30946794 0.70217806 -1.4845271
-1.336339 1.0892547 -0.75935924 -0.16422735 -0.547041 0.017463833 0.03717638 -1.5123204
-0.14610046 -0.109347925 0.28841865 -2.1563437 -0.111877024 0.22262093 0.32727456 0.43643963
-1.3523577 0.47012034 -0.5044486 -1.1225417 0.72806025 0.29709026 -1.4402877 -0.9413348
0.2013106 -1.2641772 -0.5155695 -1.6213076 0.78059393 -0.07377887 -1.4081255 -1.2741295
0.03179294 -1.095577 -0.62781817 0.7152388 0.16618422 -0.067019165 -1.4655496 -2.188342
0.57298154 -0.5389536 0.3376213 0.27838224 -1.0648156 -0.28837782 -1.277929 0.30532497
-0.80335855 0.41546944 0.7164614 -0.8782768 -1.5312268 -0.19012456 0.6350326 0.41792634
0.49583486 -1.2902172 0.10287977 -0.2734374 -0.059992135 0.29323515 0.2047213 -0.7176363
0.07026988 0.34410763 0.07338298 0.68141174 -1.3161476 -0.21060953 -1.151341 -1.6170611
0.28600943 0.40655944 -1.4141377 -0.2589279 -0.21159403 0.06853777 -1.3228539 -0.23271643
00000000: 55f9 bfbf f3a4 bfbf 4d56 4cbe 8a46 31be
00000010: 34ef 1d3f c80a 59be b5b4 1e3e 5b4b 8fbf
00000020: a438 aa3e bce9 8fbf 4e23 103f 199d d83e
00000030: 446c b3bf a685 313e 092f 233f 82ab 3ebf
00000040: a4a3 b23e bd05 163f 3d23 e33e 6321 c9bf
00000050: 6967 7fbf e38f 96be 5334 94bf 3e2f 133f
00000060: 150b 97bf 169b 683e e705 04bf c1bf 0dc0
00000070: 5926 b23e 9572 9ebe f1c1 333f fc04 bebf
00000080: 280d abbf b36c 8b3f 5e65 42bf 372b 28be
00000090: e10a 0cbf 5010 8f3c 4346 183d b793 c1bf
000000a0: 5c9b 15be cef1 dfbd 9cab 933e 8901 0ac0
000000b0: c81f e5bd bef6 633e 8890 a73e 0475 df3e
000000c0: 0f1a adbf 9db3 f03e 8b23 01bf 72af 8fbf
000000d0: 2862 3a3f 371c 983e 595b b8bf 51fb 70bf
000000e0: 5e24 4e3e 8fd0 a1bf 5dfc 03bf 0287 cfbf
000000f0: 01d5 473f 6019 97bd 753d b4bf ad16 a3bf
00000100: 5039 023d de3b 8cbf b1b8 20bf e419 373f
00000110: 322c 2a3e 5841 89bd 2197 bbbf cc0d 0cc0
00000120: ebae 123f ddf8 09bf b3dc ac3e 1e88 8e3e
00000130: e14b 88bf 42a6 93be 2d93 a3bf 8e53 9c3e
00000140: e8a8 4dbf 69b8 d43e 046a 373f c0d6 60bf
00000150: 3dff c3bf 03b0 42be 7f91 223f 71fa d53e
00000160: 11de fd3e d625 a5bf a1b2 d23d fdff 8bbe
00000170: 50ba 75bd eb22 963e 76a2 513e 03b7 37bf
00000180: a8e9 8f3d e02e b03e d149 963d 0071 2e3f
00000190: 8677 a8bf 06aa 57be 245f 93bf dcfb cebf
000001a0: d46f 923e 8f28 d03e 7702 b5bf 3392 84be
000001b0: 1bac 58be 885d 8c3d 4753 a9bf 374d 6ebe

l3.bias f4 [14]
0.080095716 0.18153815 -0.15409106 0.33193788 0.29828292 -0.3284983 0.044377834 0.47906834
0.51605964 -0.14192478 0.05659443 -0.051678363 0.23657738 -0.22674464
00000000: 3909 a43d 23e5 393e 0cca 1dbe c3f3 a93e
00000010: 8ab8 983e ee30 a8be 88c5 353d 7248 f53e
00000020: 7c1c 043f bb54 11be 90cf 673d b1ac 53bd
00000030: 5741 723e bf2f 68be
