chatbot/data.pth (torch, 6231 bytes, 6 tensors)

l1.weight f4 [8, 76]
00000000: 2cfc 25bf 9af0 8ebe 323a 20bf 0eaa b13e
00000010: 6437 453c 056c 0bbf 99f5 503f 5ad6 c23e
00000020: f033 c33e 8a75 883d 6177 4c3f bc22 003f
00000030: b1b1 eb3e 8eff 5d3e a06f 993e 7c90 813e
00000040: da2c ffbe 80e2 323e 08de a43e 7716 0c3f
00000050: 6439 a93e 8a26 6c3e 65bd 673d bc78 6bbf
00000060: 9446 673e 519c 08bf eee0 823e 5472 323f
00000070: 8c87 2e3f 2146 87bd ceac 5e3f d91e 4ebe
00000080: dcb7 3c3f 8c74 4a3f 4da1 3f3f 22f9 033f
00000090: 9a4c b33e 0188 853e 56c3 fabe 286d 30be
000000a0: 3b4a d43e 89a2 3bbf bf3d bfbe d8aa 8b3d
000000b0: 1938 cbbc 2a78 8a3e 8ff8 113f 1632 52be
000000c0: d808 ecbe bcac 923e f633 863f f518 813f
000000d0: fba2 1d3e 24fe 873e d2c9 5dbd 4e4f df3e
000000e0: 4ddf c5be f738 503c d7b1 2f3e 6c8e 153e
000000f0: 952c 81bf fab3 23be 9b81 873d fc10 393f
00000100: d8e2 be3e 1b11 1a3e 4446 1a3f ecd8 9c3e
00000110: 268f 0b3e b74a 403f e456 d0be 1814 c9be
00000120: 56b3 69bf 400c 453e 2792 8b3e 64f2 30be
00000130: 6402 90bc bc2f 483d b0ea f13e 77e8 4c3e
00000140: b51a 90be 1533 c93e 2fbb 203f 658f 863e
00000150: fbea adbd 6367 aebe 6697 723f 17f1 0d3e
00000160: a9e7 03bf 499c e73e a4df 883e 137e 8fbe
00000170: c142 c13e 0d35 6d3e f49f 76bf 8ec4 033f
00000180: 0f35 1ebe 5cde c73e 6a22 bfbe 26c9 efbd
00000190: e45d bfbe b3bf fabd 190d 1d3e d0a6 0b3f
000001a0: d3f6 883f 7c5a 28bd 94eb 3c3f ea08 90be
000001b0: 81f5 5a3f afdc 563f bcd4 fc3e da02 573d
000001c0: 596f 0dbe c459 b23e d918 3a3f 9d86 b03e
000001d0: 0faf ec3e 4dff dc3e dc6f 0ebf 9c9d febe
000001e0: 2b61 163e d374 9e3e 7a7a 68be 48f6 a23e
000001f0: 748a c3be a640 8b3e dc2f 52bf 6a27 88bf
00000200: 6cb1 9e3e 78cb 943e 6e1b 23be 2197 e23e
00000210: c1ee 5c3f d663 37bf 1f99 dcbe cca9 27bd
00000220: 8f78 3fbf 65cc a0be 6bb9 263f 5240 0bbf
00000230: 6450 25be 433a 0dbf 3c39 ecbe f2c8 9c3e
00000240: 6285 84be bea6 b7be 7ca0 1fbf 0aa3 113f
00000250: 6dfb 9b3e 2a3c d53e 8b6f 953e 92e2 68be
00000260: cad7 2e3f 1ed6 93be eef3 1a3f 2737 4f3e
00000270: cd7a 07bf b612 5e3f 6b4d 293e 35a3 4e3e
00000280: 465e 9d3e 8856 af3c 557e 24bf 5734 6dbc
00000290: 544a f43e 2260 f3bd f99d 0b3e 4a61 9ebe
000002a0: b2db 423f 0877 6bbd 9b61 cabd 318b d13e
000002b0: 8694 773f 05e1 7e3e dbba 563f ff7e 323f
000002c0: 1fff 1f3e ad47 3cbf 070e 373f 22d8 fa3e
000002d0: a0e4 10bf c752 a63e 90ba 153f bafb 5c3e
000002e0: 906a 203f b6b3 263f c279 563f 9c67 dd3e
000002f0: b8c9 ecbd d91b 313e e2d0 02bf 3f29 acbe
00000300: cdec ffbe c993 8e3f ce18 a6be dfcd 613f
00000310: 2c26 af3e e29e 8f3e 6f92 383f 161f 50be
00000320: 40b7 d2be d7a1 ee3d e1f6 0cbf fa64 373f
00000330: 055f 8d3b d4b2 413e 8431 01bd dfbc 97be
00000340: ec04 cebe 42e6 73bc 8ecb 2d3f df87 6b3f
00000350: 84e5 563f ddbc a43e d9e1 753f 7f7d b5bd
00000360: 56e8 83be 24f0 033e 8979 c23e a593 24bf
00000370: 6415 4bbf 040d 7c3e c6a7 25bf 5e9e 20bf
00000380: d92f 22bf 5715 033c ba57 1d3e 70a2 cdbc
00000390: 3151 433e 8d1b 203f b0c2 5fbc 11fb a3be
000003a0: 0691 083f 1f3b 113f 62da 41be 7ccb 02bf
000003b0: 1c14 2c3e 01f0 053f 9c40 673f 0e6e 013f
000003c0: 017e 993e 2dc3 28be 73b3 d6bb b307 1ebd
000003d0: 6602 d03e c8b1 47be 5c7b 833f 6c2a 9fbe
000003e0: e747 debe cd35 ee3e bc8e 37bd ffc2 b73d
000003f0: 178c 183f e952 4e3f 91e4 ccbe 4269 55be
-0.6483791 -0.2791794 -0.625888 0.34700054 0.012037132 -0.544617 0.8162475 0.38054162
0.38125563 0.06663044 0.7986966 0.50053 0.46034005 0.21679518 0.29967976 0.25305545
-0.49838907 0.17469215 0.32200646 0.5472178 0.33051598 0.23061576 0.056577105 -0.919811
0.22585517 -0.5336352 0.25562233 0.697057 0.6817558 -0.06605173 0.8698243 -0.20128955
0.7371805 0.79084086 0.748555 0.5155202 0.3501938 0.26080325 -0.48977154 -0.1722914
0.41462883 -0.73294884 -0.37351796 0.06819695 -0.024807023 0.27044803 0.57019895 -0.20526919
-0.46100497 0.2864741 1.0484607 1.0085741 0.15394203 0.2656108 -0.05414755 0.43615192
-0.38646927 0.012708894 0.17157684 0.14605111 -1.009173 -0.15986624 0.06616517 0.7229154
0.37282443 0.15045588 0.60263467 0.30634248 0.13628826 0.75114006 -0.40691292 -0.39273143
-0.9128927 0.19242954 0.27259943 -0.17279965 -0.017579265 0.048873648 0.47249365 0.20010553
-0.28145376 0.39296785 0.6278562 0.26281276 -0.084920846 -0.34063253 0.94762266 0.138615
-0.5152536 0.45236424 0.26733124 -0.28025874 0.37746242 0.23164769 -0.9633782 0.51471794
-0.15449928 0.39036834 -0.37330943 -0.11708288 -0.3737632 -0.12243595 0.15337028 0.5455141
1.0700325 -0.041101918 0.73796964 -0.281318 0.8553086 0.83930486 0.49381053 0.052492954
-0.13812007 0.3483411 0.72694165 0.34477702 0.4622731 0.4316353 -0.55639434 -0.4972962
0.14685504 0.30948505 -0.22702971 0.31828523 -0.3819157 0.2719776 -0.8210428 -1.0637028
0.30994737 0.29061484 -0.15928432 0.44255927 0.8630181 -0.7163671 -0.43085572 -0.040933415
-0.7479333 -0.3140594 0.65126675 -0.5439502 -0.16143948 -0.55167025 -0.46137416 0.3062206
-0.25883013 -0.35869402 -0.62354255 0.568894 0.3046526 0.41647464 0.29186663 -0.2274268
0.6829802 -0.28874296 0.6052846 0.20235883 -0.52921754 0.867473 0.16533439 0.20179446
0.30735987 0.021403566 -0.6425527 -0.014477811 0.47712958 -0.1188357 0.1363448 -0.309336
0.7611648 -0.057486564 -0.09881898 0.40926507 0.96711004 0.24890526 0.8387887 0.6972503
0.15624665 -0.7354687 0.7150578 0.4899302 -0.56598854 0.3248503 0.58487797 0.21580401
0.626626 0.6511797 0.8377954 0.4324311 -0.11561912 0.1729578 -0.5109998 -0.33625218
-0.49985352 1.113885 -0.324408 0.8820476 0.3420881 0.28050905 0.7209844 -0.20324358
-0.41155434 0.11651962 -0.5506421 0.71638453 0.0043143057 0.18915874 -0.031541362 -0.29636285
-0.4023813 -0.014886441 0.67888725 0.920042 0.83943963 0.3217534 0.9604774 -0.08861827
-0.25763196 0.12884575 0.3798335 -0.6428779 -0.79329515 0.2461434 -0.64709127 -0.6274165
-0.6335426 0.008000693 0.15365496 -0.02510187 0.19073941 0.6254204 -0.013657257 -0.32027486
0.5334629 0.56730837 -0.18930963 -0.5109174 0.16804546 0.5231934 0.9033296 0.50558555
0.29978946 -0.16480704 -0.0065521537 -0.03858156 0.4062683 -0.19501412 1.0272021 -0.31087053
-0.43414232 0.46525422 -0.044813856 0.089727394 0.5958876 0.8059526 -0.40018132 -0.20840934

l1.bias f4 [8]
00000000: 652f 813f d87f 793f 4b7c 243f 37f0 043f
00000010: d3ca a93e eab8 febd 10d1 d83e 8166 613f
1.0092589 0.974607 0.64252156 0.5192904 0.33162555 -0.12437613 0.42347002 0.88047034

l2.weight f4 [8, 8]
00000000: ead2 b03f 2cd6 86bd 1f29 a83f 4752 4ebf
00000010: 4727 85bf a93d 2bbe 1a9c 6c3f ad65 aabd
00000020: 6b29 7d3e b8c7 5a3f 0f2c bf3b 51ef c6be
00000030: d849 7cbf e6bb 393c 36d2 59bf a485 b83f
00000040: caee d73f 44b9 d83f 3513 943f bfc8 3fbf
00000050: 054f 883e ef16 803e e121 d8bd 2409 41bf
00000060: 9308 113f ca29 87bf b555 923f 73c1 493f
00000070: f4ea 3f3f 07ff 81be fcae 5abf 5a0f af3f
00000080: 6770 1c3f 3323 b63f 455a e33e 172b 94bf
00000090: 180b 83bf 6d31 183d da42 603f 3ca1 e6be
000000a0: 8f52 98bf 6642 3b3f f1f5 863f a620 a03e
000000b0: 51e0 b53f c010 50be e2f6 b73f 4251 bc3e
000000c0: b818 073f 6a45 6d3e 8b00 65be 8c8e ef3f
000000d0: 9078 bfbe 1abe 81be 9512 70bf 328f 7e3f
000000e0: ef66 4d3f 791b 413f b3f8 b7bf 2ec9 463f
000000f0: cb13 843e 618d 5ebd 39d9 d33f 1a58 283e
1.3814366 -0.06583819 1.3137549 -0.80594295 -1.0402611 -0.1672274 0.9242569 -0.08320174
0.24722831 0.85460997 0.0058341096 -0.3885446 -0.98550177 0.011336302 -0.8508638 1.4415784
1.6869748 1.6931539 1.1568362 -0.7491569 0.26622787 0.25017497 -0.10553337 -0.7540457
0.5665371 -1.0559628 1.1432406 0.78810805 0.74967885 -0.25389883 -0.85423255 1.367656
0.6110901 1.4229492 0.44404808 -1.157565 -1.023776 0.03715651 0.8760201 -0.45044887
-1.1900195 0.7314819 1.0543805 0.3127491 1.4209081 -0.2031889 1.4372218 0.36780745
0.5277209 0.2317101 -0.22363488 1.8715377 -0.3739667 -0.25340348 -0.93778354 0.9943725
0.8023519 0.75432545 -1.4372772 0.77650726 0.2579635 -0.05433405 1.6550666 0.16439858

l2.bias f4 [8]
00000000: 27d3 943e 6d1a 6e3f d799 123e 1a2e 223e
00000010: 0b25 343f 0e02 64be f1cc c7bd a3cc d73e
0.29067346 0.9300907 0.14316498 0.15837899 0.70369023 -0.22266409 -0.09755886 0.42148313

l3.weight f4 [14, 8]
00000000: f97b 9cbf c4c3 b3bf ebd4 c23e 2b86 643e
00000010: d12b 4ebf 10cb 4f3f 2b3b e4be 632b 56bf
00000020: 5afe acbf 0dda e4bf cd39 afbf 6ae7 203f
00000030: a4ce b6be d71e cfbd 6395 ee3e d672 f43d
00000040: 42b7 eb3e c13a e6bf c705 e53e 0a61 833e
00000050: 9a59 c53e a605 41be 96ad c8bf d03a 96bf
00000060: e4f0 7ebf 1708 ee3e 71a3 a13e b5fe 13bf
00000070: 60c7 113d 86d7 d1bf 8a79 1a3f 0979 c53e
00000080: ce5f ab3e a806 3f3e b159 373f f833 25bf
00000090: e06c 273f 503c bbbf fc50 57bf 4394 26bf
000000a0: 3170 eebf 3080 b0bd 5abf c73e 9c06 acbf
000000b0: 31f0 413e fd3b 833e 277c 96bf fa14 193f
000000c0: 8987 e7bc 6cfc fe3e a3ec dbbd 8b64 5f3e
000000d0: b6d8 393e 8af1 fd3c 352e dabe 7418 bdbf
000000e0: 04eb 833e 4261 f13e aca6 a8bf 021b 0dbf
000000f0: d35d ff3e c1c2 02bf bc1b b3bf b78e 563f
00000100: 43f5 9b3e fb2b 57be 6627 14be 52a0 1f3f
00000110: 7ae6 64bf e01d 9fbf e528 193f 4cfc 59bf
00000120: f289 cd3e f845 d5bf f268 473e cad3 b3bf
00000130: 921c 093f 69b6 04be 9c3f c0bf 6b9b 483e
00000140: 9232 e5bf 4903 cb3e 16c8 95bf 10a6 683f
00000150: 6fd6 11bf eaa5 1b3e 8391 233e 5d45 afbf
00000160: 9cba 9cbd d418 abbf 0ed2 893e e84a d73e
00000170: 5f2d 4cbf 0f05 25bf cf5f 1bbf c560 f43e
00000180: 2bdd febf 9298 323f f4bc c2bf 9111 f73d
00000190: 3751 6fbf 7252 c4bf bb1c 483f afb4 e83e
000001a0: 288c 9fbf 9a2b c1bf 69d2 bebf e901 3cbf
000001b0: 45dd 41bf ab78 fd3e 3c2e 0abe fcf3 293f
-1.2225333 -1.4044118 0.3805307 0.22316806 -0.8053561 0.81169224 -0.44576392 -0.8365995
-1.3515122 -1.7879044 -1.3689514 0.6285311 -0.3570453 -0.10113304 0.46598348 0.11935966
0.46038252 -1.798668 0.4473097 0.25659972 0.38544923 -0.18849811 -1.5677974 -1.1736698
-0.9958632 0.46490547 0.31570008 -0.5781053 0.03559053 -1.6393898 0.60341704 0.38568905
0.3347153 0.18654883 0.71621233 -0.64532423 0.65400505 -1.4627781 -0.8410795 -0.6506998
-1.8627988 -0.086182 0.39013177 -1.3439517 0.18939282 0.25631705 -1.1756638 0.5979763
-0.02826287 0.49801958 -0.10738494 0.21815698 0.18149075 0.030998964 -0.42613378 -1.4773088
0.2576524 0.47144514 -1.3175864 -0.55119336 0.4987627 -0.5107842 -1.3992839 0.83811516
0.30460557 -0.21012871 -0.14468154 0.62354004 -0.8941418 -1.2430992 0.59828025 -0.851506
0.40144306 -1.6661978 0.19473627 -1.4049008 0.5355922 -0.12960209 -1.5019412 0.19590537
-1.7906058 0.39650944 -1.1701686 0.9087839 -0.56967825 0.1520001 0.15973477 -1.3693043
-0.076527804 -1.3366952 0.26918072 0.42049336 -0.7975673 -0.64460844 -0.6069307 0.4773008
-1.9911245 0.69764054 -1.5213914 0.120638974 -0.934833 -1.533766 0.7816884 0.4545035
-1.2464647 -1.5091431 -1.4907962 -0.73440415 -0.75728256 0.49506125 -0.134942 0.66387916

l3.bias f4 [14]
00000000: 75c7 15be 8102 93be 273f 07bf 67f2 68be
00000010: ac4d b0bd 0477 adbe c83f 74be 978a c33e
00000020: 71f0 ccbe ec32 e2bd e03b f03e 07cd 5d3e
00000030: 925a 5f3d 3766 9b3e
-0.14626868 -0.28712848 -0.5283074 -0.22748719 -0.08608565 -0.33879864 -0.23852456 0.38191673
-0.40027192 -0.11044869 0.4692068 0.21660243 0.054529734 0.3035142
